…
PSNR history : [… PSNR epoch history :  []
MIN-MAX history : [(0.0, 1.0), (0.0, 1.0), (0.0, 1.0), (0.0, 1.0), (0.0, 1.0), (0.0, 1.0), (0.0, 1.0), (0.0, 1.0), (0.0, 1.0), (0.0, 1.0), (0.0, 1.0), (0.0, 1.0), (0.0, 1.0), (0.0, 1.0), (0.0, 1.0), (0.0, 1.0), (0.0, 1.0), (0.0, 1.0), (0.0, 1.0), (0.0, 1.0)]
MIN-MAX epoch history :  []
 9984/10000 [============================>.] - ETA: 0s_________________________________________________________________
Layer (type)                 Output Shape              Param #   
=================================================================
input_1 (InputLayer)         (None, 3, 32, 32)         0         
_________________________________________________________________
conv2d_1 (Conv2D)            (None, 64, 32, 32)        15616     
_________________________________________________________________
conv2d_2 (Conv2D)            (None, 32, 32, 32)        18464     
_________________________________________________________________
conv2d_3 (Conv2D)            (None, 32, 32, 32)        1056      
_________________________________________________________________
conv2d_4 (Conv2D)            (None, 3, 32, 32)         2403      
=================================================================
Total params: 37,539
Trainable params: 37,539
Non-trainable params: 0
_________________________________________________________________
None