…
ACCEPTED
X_train : [ num : 20000, height : 32, width : 32, depth : 3 ], X_test : [ num : 10000, height : 32, width : 32, depth : 3 ]
Y_train : [ num : 20000, height : 32, width : 32, depth : 3 ], Y_test : [ num : 10000, height : 32, width : 32, depth : 3 ]

making PSNR callback metric...
making MIN-MAX callback metric...
SRCNN tf fitting...
PSNR (3 channels) metric running...
_________________________________________________________________
Layer (type)                 Output Shape              Param #   
=================================================================
input_1 (InputLayer)         (None, 32, 32, 3)         0         
_________________________________________________________________
conv2d_1 (Conv2D)            (None, 32, 32, 64)        15616     
_________________________________________________________________
conv2d_2 (Conv2D)            (None, 32, 32, 32)        18464     
_________________________________________________________________
conv2d_3 (Conv2D)            (None, 32, 32, 32)        1056      
_________________________________________________________________
conv2d_4 (Conv2D)            (None, 32, 32, 3)         2403      
=================================================================
Total params: 37,539
Trainable params: 37,539
Non-trainable params: 0
_________________________________________________________________
None
PSNR callback metric running...
MIN-MAX callback metric running...
Epoch 1/10
I c:\tf_jenkins\home\workspace\release-win\device\gpu\os\windows\tensorflow\core\common_runtime\gpu\gpu_device.cc:885] Found device 0 with properties: 
…
PSNR history : [23.874063982231377, 24.425232550946721, 24.690809006098505, 24.513332577745402, 24.762053019124899, 24.77780153636153, 24.389521003881679, 24.848635888527795, 24.766952387806917, 24.845822922019668]
PSNR epoch history :  []
MIN-MAX history : [(0.0, 1.0), (0.0, 1.0), (0.0, 1.0), (0.0, 1.0), (0.0, 1.0), (0.0, 1.0), (0.0, 1.0), (0.0, 1.0), (0.0, 1.0), (0.0, 1.0)]
MIN-MAX epoch history :  []
 9984/10000 [============================>.] - ETA: 0s_________________________________________________________________
Layer (type)                 Output Shape              Param #   
=================================================================
input_1 (InputLayer)         (None, 32, 32, 3)         0         
_________________________________________________________________
conv2d_1 (Conv2D)            (None, 32, 32, 64)        15616     
_________________________________________________________________
conv2d_2 (Conv2D)            (None, 32, 32, 32)        18464     
_________________________________________________________________
conv2d_3 (Conv2D)            (None, 32, 32, 32)        1056      
_________________________________________________________________
conv2d_4 (Conv2D)            (None, 32, 32, 3)         2403      
=================================================================
Total params: 37,539
Trainable params: 37,539
Non-trainable params: 0
_________________________________________________________________
None

prediction image 0 :
4 (10000, 32, 32, 3) 30720000 uint8 1
3 (32, 32, 3) 3072 uint8 1
zoomed out image 0:
4 (10000, 32, 32, 3) 30720000 uint8 1
3 (32, 32, 3) 3072 uint8 1
original image 0:
4 (10000, 32, 32, 3) 30720000 uint8 1
3 (32, 32, 3) 3072 uint8 1
computing images difference metrics...
PSNR : 23.7876, SSIM : 0.8587, MSE : 271.8434

prediction image 1 :
4 (10000, 32, 32, 3) 30720000 uint8 1
3 (32, 32, 3) 3072 uint8 1
zoomed out image 1:
4 (10000, 32, 32, 3) 30720000 uint8 1
3 (32, 32, 3) 3072 uint8 1
original image 1:
4 (10000, 32, 32, 3) 30720000 uint8 1
3 (32, 32, 3) 3072 uint8 1
computing images difference metrics...
PSNR : 17.5962, SSIM : 0.7699, MSE : 1130.9922

prediction image 2 :
4 (10000, 32, 32, 3) 30720000 uint8 1
3 (32, 32, 3) 3072 uint8 1
zoomed out image 2:
4 (10000, 32, 32, 3) 30720000 uint8 1
3 (32, 32, 3) 3072 uint8 1
original image 2:
4 (10000, 32, 32, 3) 30720000 uint8 1
3 (32, 32, 3) 3072 uint8 1
computing images difference metrics...
PSNR : 26.9819, SSIM : 0.91, MSE : 130.2839

prediction image 3 :
4 (10000, 32, 32, 3) 30720000 uint8 1
3 (32, 32, 3) 3072 uint8 1
zoomed out image 3:
4 (10000, 32, 32, 3) 30720000 uint8 1
3 (32, 32, 3) 3072 uint8 1
original image 3:
4 (10000, 32, 32, 3) 30720000 uint8 1
3 (32, 32, 3) 3072 uint8 1
computing images difference metrics...
PSNR : 23.7524, SSIM : 0.8268, MSE : 274.055

prediction image 4 :
4 (10000, 32, 32, 3) 30720000 uint8 1
3 (32, 32, 3) 3072 uint8 1
zoomed out image 4:
4 (10000, 32, 32, 3) 30720000 uint8 1
3 (32, 32, 3) 3072 uint8 1
original image 4:
4 (10000, 32, 32, 3) 30720000 uint8 1
3 (32, 32, 3) 3072 uint8 1
computing images difference metrics...
PSNR : 23.9242, SSIM : 0.8013, MSE : 263.4251

prediction image 5 :
4 (10000, 32, 32, 3) 30720000 uint8 1
3 (32, 32, 3) 3072 uint8 1
zoomed out image 5:
4 (10000, 32, 32, 3) 30720000 uint8 1
3 (32, 32, 3) 3072 uint8 1
original image 5:
4 (10000, 32, 32, 3) 30720000 uint8 1
3 (32, 32, 3) 3072 uint8 1
computing images difference metrics...
PSNR : 25.7902, SSIM : 0.852, MSE : 171.4206

prediction image 6 :
4 (10000, 32, 32, 3) 30720000 uint8 1
3 (32, 32, 3) 3072 uint8 1
zoomed out image 6:
4 (10000, 32, 32, 3) 30720000 uint8 1
3 (32, 32, 3) 3072 uint8 1
original image 6:
4 (10000, 32, 32, 3) 30720000 uint8 1
3 (32, 32, 3) 3072 uint8 1
computing images difference metrics...
PSNR : 23.4204, SSIM : 0.8894, MSE : 295.8304

prediction image 7 :
4 (10000, 32, 32, 3) 30720000 uint8 1
3 (32, 32, 3) 3072 uint8 1
zoomed out image 7:
4 (10000, 32, 32, 3) 30720000 uint8 1
3 (32, 32, 3) 3072 uint8 1
original image 7:
4 (10000, 32, 32, 3) 30720000 uint8 1
3 (32, 32, 3) 3072 uint8 1
computing images difference metrics...
PSNR : 30.1136, SSIM : 0.9232, MSE : 63.3464

prediction image 8 :
4 (10000, 32, 32, 3) 30720000 uint8 1
3 (32, 32, 3) 3072 uint8 1
zoomed out image 8:
4 (10000, 32, 32, 3) 30720000 uint8 1
3 (32, 32, 3) 3072 uint8 1
original image 8:
4 (10000, 32, 32, 3) 30720000 uint8 1
3 (32, 32, 3) 3072 uint8 1
computing images difference metrics...
PSNR : 27.7415, SSIM : 0.8852, MSE : 109.3776

prediction image 9 :
4 (10000, 32, 32, 3) 30720000 uint8 1
3 (32, 32, 3) 3072 uint8 1
zoomed out image 9:
4 (10000, 32, 32, 3) 30720000 uint8 1
3 (32, 32, 3) 3072 uint8 1
original image 9:
4 (10000, 32, 32, 3) 30720000 uint8 1
3 (32, 32, 3) 3072 uint8 1
computing images difference metrics...
PSNR : 23.2634, SSIM : 0.8533, MSE : 306.7165
SRCNN running lasted 14 m 54 s 832 ms

Process finished with exit code 0
