…
ACCEPTED
X_train : [ num : 20000, height : 32, width : 32, depth : 3 ], X_test : [ num : 10000, height : 32, width : 32, depth : 3 ]
Y_train : [ num : 20000, height : 32, width : 32, depth : 3 ], Y_test : [ num : 10000, height : 32, width : 32, depth : 3 ]

making PSNR callback metric...
making MIN-MAX callback metric...
SRCNN fitting...
PSNR (3 channels) metric running...
_________________________________________________________________
Layer (type)                 Output Shape              Param #   
=================================================================
input_1 (InputLayer)         (None, 32, 32, 3)         0         
_________________________________________________________________
conv2d_1 (Conv2D)            (None, 32, 32, 64)        15616     
_________________________________________________________________
conv2d_2 (Conv2D)            (None, 32, 32, 32)        18464     
_________________________________________________________________
conv2d_3 (Conv2D)            (None, 32, 32, 32)        1056      
_________________________________________________________________
conv2d_4 (Conv2D)            (None, 32, 32, 3)         2403      
=================================================================
Total params: 37,539
Trainable params: 37,539
Non-trainable params: 0
_________________________________________________________________
None
PSNR callback metric running...
MIN-MAX callback metric running...
Epoch 1/20
I c:\tf_jenkins\home\workspace\release-win\device\gpu\os\windows\tensorflow\core\common_runtime\gpu\gpu_device.cc:885] Found device 0 with properties: 
…
PSNR history : [… PSNR epoch history :  []
MIN-MAX history : [(0.0, 1.0), (0.0, 1.0), (0.0, 1.0), (0.0, 1.0), (0.0, 1.0), (0.0, 1.0), (0.0, 1.0), (0.0, 1.0), (0.0, 1.0), (0.0, 1.0), (0.0, 1.0), (0.0, 1.0), (0.0, 1.0), (0.0, 1.0), (0.0, 1.0), (0.0, 1.0), (0.0, 1.0), (0.0, 1.0), (0.0, 1.0), (0.0, 1.0)]
MIN-MAX epoch history :  []
10000/10000 [==============================] - 7s     
_________________________________________________________________
Layer (type)                 Output Shape              Param #   
=================================================================
input_1 (InputLayer)         (None, 32, 32, 3)         0         
_________________________________________________________________
conv2d_1 (Conv2D)            (None, 32, 32, 64)        15616     
_________________________________________________________________
conv2d_2 (Conv2D)            (None, 32, 32, 32)        18464     
_________________________________________________________________
conv2d_3 (Conv2D)            (None, 32, 32, 32)        1056      
_________________________________________________________________
conv2d_4 (Conv2D)            (None, 32, 32, 3)         2403      
=================================================================
Total params: 37,539
Trainable params: 37,539
Non-trainable params: 0
_________________________________________________________________
None

prediction image 0 :
4 (10000, 32, 32, 3) 30720000 uint8 1
3 (32, 32, 3) 3072 uint8 1
zoomed out image 0:
4 (10000, 32, 32, 3) 30720000 uint8 1
3 (32, 32, 3) 3072 uint8 1
original image 0:
4 (10000, 32, 32, 3) 30720000 uint8 1
3 (32, 32, 3) 3072 uint8 1
computing images difference metrics...
PSNR : 22.9416, SSIM : 0.8476, MSE : 330.3125

prediction image 1 :
4 (10000, 32, 32, 3) 30720000 uint8 1
3 (32, 32, 3) 3072 uint8 1
zoomed out image 1:
4 (10000, 32, 32, 3) 30720000 uint8 1
3 (32, 32, 3) 3072 uint8 1
original image 1:
4 (10000, 32, 32, 3) 30720000 uint8 1
3 (32, 32, 3) 3072 uint8 1
computing images difference metrics...
PSNR : 16.9495, SSIM : 0.7492, MSE : 1312.5863

prediction image 2 :
4 (10000, 32, 32, 3) 30720000 uint8 1
3 (32, 32, 3) 3072 uint8 1
zoomed out image 2:
4 (10000, 32, 32, 3) 30720000 uint8 1
3 (32, 32, 3) 3072 uint8 1
original image 2:
4 (10000, 32, 32, 3) 30720000 uint8 1
3 (32, 32, 3) 3072 uint8 1
computing images difference metrics...
PSNR : 25.319, SSIM : 0.9048, MSE : 191.0638

prediction image 3 :
4 (10000, 32, 32, 3) 30720000 uint8 1
3 (32, 32, 3) 3072 uint8 1
zoomed out image 3:
4 (10000, 32, 32, 3) 30720000 uint8 1
3 (32, 32, 3) 3072 uint8 1
original image 3:
4 (10000, 32, 32, 3) 30720000 uint8 1
3 (32, 32, 3) 3072 uint8 1
computing images difference metrics...
PSNR : 22.9115, SSIM : 0.8006, MSE : 332.609

prediction image 4 :
4 (10000, 32, 32, 3) 30720000 uint8 1
3 (32, 32, 3) 3072 uint8 1
zoomed out image 4:
4 (10000, 32, 32, 3) 30720000 uint8 1
3 (32, 32, 3) 3072 uint8 1
original image 4:
4 (10000, 32, 32, 3) 30720000 uint8 1
3 (32, 32, 3) 3072 uint8 1
computing images difference metrics...
PSNR : 22.9699, SSIM : 0.7859, MSE : 328.1624

prediction image 5 :
4 (10000, 32, 32, 3) 30720000 uint8 1
3 (32, 32, 3) 3072 uint8 1
zoomed out image 5:
4 (10000, 32, 32, 3) 30720000 uint8 1
3 (32, 32, 3) 3072 uint8 1
original image 5:
4 (10000, 32, 32, 3) 30720000 uint8 1
3 (32, 32, 3) 3072 uint8 1
computing images difference metrics...
PSNR : 24.4086, SSIM : 0.8269, MSE : 235.6243

prediction image 6 :
4 (10000, 32, 32, 3) 30720000 uint8 1
3 (32, 32, 3) 3072 uint8 1
zoomed out image 6:
4 (10000, 32, 32, 3) 30720000 uint8 1
3 (32, 32, 3) 3072 uint8 1
original image 6:
4 (10000, 32, 32, 3) 30720000 uint8 1
3 (32, 32, 3) 3072 uint8 1
computing images difference metrics...
PSNR : 22.5909, SSIM : 0.8642, MSE : 358.0882

prediction image 7 :
4 (10000, 32, 32, 3) 30720000 uint8 1
3 (32, 32, 3) 3072 uint8 1
zoomed out image 7:
4 (10000, 32, 32, 3) 30720000 uint8 1
3 (32, 32, 3) 3072 uint8 1
original image 7:
4 (10000, 32, 32, 3) 30720000 uint8 1
3 (32, 32, 3) 3072 uint8 1
computing images difference metrics...
PSNR : 27.9155, SSIM : 0.9028, MSE : 105.082

prediction image 8 :
4 (10000, 32, 32, 3) 30720000 uint8 1
3 (32, 32, 3) 3072 uint8 1
zoomed out image 8:
4 (10000, 32, 32, 3) 30720000 uint8 1
3 (32, 32, 3) 3072 uint8 1
original image 8:
4 (10000, 32, 32, 3) 30720000 uint8 1
3 (32, 32, 3) 3072 uint8 1
computing images difference metrics...
PSNR : 25.3468, SSIM : 0.875, MSE : 189.8473

prediction image 9 :
4 (10000, 32, 32, 3) 30720000 uint8 1
3 (32, 32, 3) 3072 uint8 1
zoomed out image 9:
4 (10000, 32, 32, 3) 30720000 uint8 1
3 (32, 32, 3) 3072 uint8 1
original image 9:
4 (10000, 32, 32, 3) 30720000 uint8 1
3 (32, 32, 3) 3072 uint8 1
computing images difference metrics...
PSNR : 22.4297, SSIM : 0.8386, MSE : 371.6309
SRCNN running lasted 28 m 8 s 740 ms