…
ACCEPTED
X_train : [ num : 2000, height : 32, width : 32, depth : 3 ], X_test : [ num : 10000, height : 32, width : 32, depth : 3 ]
Y_train : [ num : 2000, height : 32, width : 32, depth : 3 ], Y_test : [ num : 10000, height : 32, width : 32, depth : 3 ]

making PSNR callback metric...
making MIN-MAX callback metric...
SRCNN fitting...
PSNR (3 channels) metric running...
_________________________________________________________________
Layer (type)                 Output Shape              Param #   
=================================================================
input_1 (InputLayer)         (None, 32, 32, 3)         0         
_________________________________________________________________
conv2d_1 (Conv2D)            (None, 32, 32, 64)        15616     
_________________________________________________________________
conv2d_2 (Conv2D)            (None, 32, 32, 32)        18464     
_________________________________________________________________
conv2d_3 (Conv2D)            (None, 32, 32, 32)        1056      
_________________________________________________________________
conv2d_4 (Conv2D)            (None, 32, 32, 3)         2403      
=================================================================
Total params: 37,539
Trainable params: 37,539
Non-trainable params: 0
_________________________________________________________________
None
PSNR callback metric running...
MIN-MAX callback metric running...
Epoch 1/200
I c:\tf_jenkins\home\workspace\release-win\device\gpu\os\windows\tensorflow\core\common_runtime\gpu\gpu_device.cc:885] Found device 0 with properties: 
…
, (0.0, 1.0), (0.0, 1.0), (0.0, 1.0), (0.0, 1.0), (0.0, 1.0), (0.0, 1.0), (0.0, 1.0), (0.0, 1.0), (0.0, 1.0), (0.0, 1.0), (0.0, 1.0), (0.0, 1.0), (0.0, 1.0), (0.0, 1.0), (0.0, 1.0), (0.0, 1.0), (0.0, 1.0), (0.0, 1.0), (0.0, 1.0), (0.0, 1.0), (0.0, 1.0), (0.0, 1.0), (0.0, 1.0), (0.0, 1.0)]
MIN-MAX epoch history :  []
10000/10000 [==============================] - 7s     
_________________________________________________________________
Layer (type)                 Output Shape              Param #   
=================================================================
input_1 (InputLayer)         (None, 32, 32, 3)         0         
_________________________________________________________________
conv2d_1 (Conv2D)            (None, 32, 32, 64)        15616     
_________________________________________________________________
conv2d_2 (Conv2D)            (None, 32, 32, 32)        18464     
_________________________________________________________________
conv2d_3 (Conv2D)            (None, 32, 32, 32)        1056      
_________________________________________________________________
conv2d_4 (Conv2D)            (None, 32, 32, 3)         2403      
=================================================================
Total params: 37,539
Trainable params: 37,539
Non-trainable params: 0
_________________________________________________________________
None

prediction image 0 :
4 (10000, 32, 32, 3) 30720000 uint8 1
3 (32, 32, 3) 3072 uint8 1
zoomed out image 0:
4 (10000, 32, 32, 3) 30720000 uint8 1
3 (32, 32, 3) 3072 uint8 1
original image 0:
4 (10000, 32, 32, 3) 30720000 uint8 1
3 (32, 32, 3) 3072 uint8 1
computing images difference metrics...
PSNR : 22.9655, SSIM : 0.8404, MSE : 328.4945

prediction image 1 :
4 (10000, 32, 32, 3) 30720000 uint8 1
3 (32, 32, 3) 3072 uint8 1
zoomed out image 1:
4 (10000, 32, 32, 3) 30720000 uint8 1
3 (32, 32, 3) 3072 uint8 1
original image 1:
4 (10000, 32, 32, 3) 30720000 uint8 1
3 (32, 32, 3) 3072 uint8 1
computing images difference metrics...
PSNR : 17.3169, SSIM : 0.7431, MSE : 1206.126

prediction image 2 :
4 (10000, 32, 32, 3) 30720000 uint8 1
3 (32, 32, 3) 3072 uint8 1
zoomed out image 2:
4 (10000, 32, 32, 3) 30720000 uint8 1
3 (32, 32, 3) 3072 uint8 1
original image 2:
4 (10000, 32, 32, 3) 30720000 uint8 1
3 (32, 32, 3) 3072 uint8 1
computing images difference metrics...
PSNR : 25.5564, SSIM : 0.9051, MSE : 180.8988

prediction image 3 :
4 (10000, 32, 32, 3) 30720000 uint8 1
3 (32, 32, 3) 3072 uint8 1
zoomed out image 3:
4 (10000, 32, 32, 3) 30720000 uint8 1
3 (32, 32, 3) 3072 uint8 1
original image 3:
4 (10000, 32, 32, 3) 30720000 uint8 1
3 (32, 32, 3) 3072 uint8 1
computing images difference metrics...
PSNR : 22.6449, SSIM : 0.7897, MSE : 353.6657

prediction image 4 :
4 (10000, 32, 32, 3) 30720000 uint8 1
3 (32, 32, 3) 3072 uint8 1
zoomed out image 4:
4 (10000, 32, 32, 3) 30720000 uint8 1
3 (32, 32, 3) 3072 uint8 1
original image 4:
4 (10000, 32, 32, 3) 30720000 uint8 1
3 (32, 32, 3) 3072 uint8 1
computing images difference metrics...
PSNR : 23.3303, SSIM : 0.7845, MSE : 302.0299

prediction image 5 :
4 (10000, 32, 32, 3) 30720000 uint8 1
3 (32, 32, 3) 3072 uint8 1
zoomed out image 5:
4 (10000, 32, 32, 3) 30720000 uint8 1
3 (32, 32, 3) 3072 uint8 1
original image 5:
4 (10000, 32, 32, 3) 30720000 uint8 1
3 (32, 32, 3) 3072 uint8 1
computing images difference metrics...
PSNR : 24.2176, SSIM : 0.8273, MSE : 246.2171

prediction image 6 :
4 (10000, 32, 32, 3) 30720000 uint8 1
3 (32, 32, 3) 3072 uint8 1
zoomed out image 6:
4 (10000, 32, 32, 3) 30720000 uint8 1
3 (32, 32, 3) 3072 uint8 1
original image 6:
4 (10000, 32, 32, 3) 30720000 uint8 1
3 (32, 32, 3) 3072 uint8 1
computing images difference metrics...
PSNR : 22.0474, SSIM : 0.8339, MSE : 405.8223

prediction image 7 :
4 (10000, 32, 32, 3) 30720000 uint8 1
3 (32, 32, 3) 3072 uint8 1
zoomed out image 7:
4 (10000, 32, 32, 3) 30720000 uint8 1
3 (32, 32, 3) 3072 uint8 1
original image 7:
4 (10000, 32, 32, 3) 30720000 uint8 1
3 (32, 32, 3) 3072 uint8 1
computing images difference metrics...
PSNR : 27.9523, SSIM : 0.8985, MSE : 104.195

prediction image 8 :
4 (10000, 32, 32, 3) 30720000 uint8 1
3 (32, 32, 3) 3072 uint8 1
zoomed out image 8:
4 (10000, 32, 32, 3) 30720000 uint8 1
3 (32, 32, 3) 3072 uint8 1
original image 8:
4 (10000, 32, 32, 3) 30720000 uint8 1
3 (32, 32, 3) 3072 uint8 1
computing images difference metrics...
PSNR : 26.0492, SSIM : 0.8786, MSE : 161.4948

prediction image 9 :
4 (10000, 32, 32, 3) 30720000 uint8 1
3 (32, 32, 3) 3072 uint8 1
zoomed out image 9:
4 (10000, 32, 32, 3) 30720000 uint8 1
3 (32, 32, 3) 3072 uint8 1
original image 9:
4 (10000, 32, 32, 3) 30720000 uint8 1
3 (32, 32, 3) 3072 uint8 1
computing images difference metrics...
PSNR : 22.1757, SSIM : 0.8341, MSE : 394.0094
SRCNN running lasted 28 m 2 s 43 ms

Process finished with exit code 0