…
ACCEPTED
X_train : [ num : 20000, height : 32, width : 32, depth : 3 ], X_test : [ num : 10000, height : 32, width : 32, depth : 3 ]
Y_train : [ num : 20000, height : 32, width : 32, depth : 3 ], Y_test : [ num : 10000, height : 32, width : 32, depth : 3 ]

making PSNR callback metric...
making MIN-MAX callback metric...
SRCNN tf fitting...
PSNR (3 channels) metric running...
_________________________________________________________________
Layer (type)                 Output Shape              Param #   
=================================================================
input_1 (InputLayer)         (None, 32, 32, 3)         0         
_________________________________________________________________
conv2d_1 (Conv2D)            (None, 32, 32, 64)        15616     
_________________________________________________________________
conv2d_2 (Conv2D)            (None, 32, 32, 32)        18464     
_________________________________________________________________
conv2d_3 (Conv2D)            (None, 32, 32, 32)        1056      
_________________________________________________________________
conv2d_4 (Conv2D)            (None, 32, 32, 3)         2403      
=================================================================
Total params: 37,539
Trainable params: 37,539
Non-trainable params: 0
_________________________________________________________________
None
PSNR callback metric running...
MIN-MAX callback metric running...
Epoch 1/40
I c:\tf_jenkins\home\workspace\release-win\device\gpu\os\windows\tensorflow\core\common_runtime\gpu\gpu_device.cc:885] Found device 0 with properties: 
…
MIN-MAX history : [(0.0, 1.0), (0.0, 1.0), (0.0, 1.0), (0.0, 1.0), (0.0, 0.0), (0.0, 0.0), (0.0, 0.0), (0.0, 0.0), (0.0, 0.0), (0.0, 0.0), (0.0, 0.0), (0.0, 0.0027350299), (0.0, 0.47861457), (0.0, 1.0), (0.0, 1.0), (0.0, 1.0), (0.0, 1.0), (0.0, 1.0), (0.0, 1.0), (0.0, 1.0), (0.0, 1.0), (0.0, 1.0), (0.0, 1.0), (0.0, 1.0), (0.0, 1.0), (0.0, 1.0), (0.0, 1.0), (0.0, 1.0), (0.0, 1.0), (0.0, 1.0), (0.0, 1.0), (0.0, 1.0), (0.0, 1.0), (0.0, 1.0), (0.0, 1.0), (0.0, 1.0), (0.0, 1.0), (0.0, 1.0), (0.0, 1.0), (0.0, 1.0)]
MIN-MAX epoch history :  []
10000/10000 [==============================] - 7s     
_________________________________________________________________
Layer (type)                 Output Shape              Param #   
=================================================================
input_1 (InputLayer)         (None, 32, 32, 3)         0         
_________________________________________________________________
conv2d_1 (Conv2D)            (None, 32, 32, 64)        15616     
_________________________________________________________________
conv2d_2 (Conv2D)            (None, 32, 32, 32)        18464     
_________________________________________________________________
conv2d_3 (Conv2D)            (None, 32, 32, 32)        1056      
_________________________________________________________________
conv2d_4 (Conv2D)            (None, 32, 32, 3)         2403      
=================================================================
Total params: 37,539
Trainable params: 37,539
Non-trainable params: 0
_________________________________________________________________
None

prediction image 0 :
4 (10000, 32, 32, 3) 30720000 uint8 1
3 (32, 32, 3) 3072 uint8 1
zoomed out image 0:
4 (10000, 32, 32, 3) 30720000 uint8 1
3 (32, 32, 3) 3072 uint8 1
original image 0:
4 (10000, 32, 32, 3) 30720000 uint8 1
3 (32, 32, 3) 3072 uint8 1
computing images difference metrics...
PSNR : 23.5476, SSIM : 0.8531, MSE : 287.29

prediction image 1 :
4 (10000, 32, 32, 3) 30720000 uint8 1
3 (32, 32, 3) 3072 uint8 1
zoomed out image 1:
4 (10000, 32, 32, 3) 30720000 uint8 1
3 (32, 32, 3) 3072 uint8 1
original image 1:
4 (10000, 32, 32, 3) 30720000 uint8 1
3 (32, 32, 3) 3072 uint8 1
computing images difference metrics...
PSNR : 17.3975, SSIM : 0.7594, MSE : 1183.944

prediction image 2 :
4 (10000, 32, 32, 3) 30720000 uint8 1
3 (32, 32, 3) 3072 uint8 1
zoomed out image 2:
4 (10000, 32, 32, 3) 30720000 uint8 1
3 (32, 32, 3) 3072 uint8 1
original image 2:
4 (10000, 32, 32, 3) 30720000 uint8 1
3 (32, 32, 3) 3072 uint8 1
computing images difference metrics...
PSNR : 26.4047, SSIM : 0.9081, MSE : 148.8037

prediction image 3 :
4 (10000, 32, 32, 3) 30720000 uint8 1
3 (32, 32, 3) 3072 uint8 1
zoomed out image 3:
4 (10000, 32, 32, 3) 30720000 uint8 1
3 (32, 32, 3) 3072 uint8 1
original image 3:
4 (10000, 32, 32, 3) 30720000 uint8 1
3 (32, 32, 3) 3072 uint8 1
computing images difference metrics...
PSNR : 23.4074, SSIM : 0.8135, MSE : 296.7171

prediction image 4 :
4 (10000, 32, 32, 3) 30720000 uint8 1
3 (32, 32, 3) 3072 uint8 1
zoomed out image 4:
4 (10000, 32, 32, 3) 30720000 uint8 1
3 (32, 32, 3) 3072 uint8 1
original image 4:
4 (10000, 32, 32, 3) 30720000 uint8 1
3 (32, 32, 3) 3072 uint8 1
computing images difference metrics...
PSNR : 23.7066, SSIM : 0.798, MSE : 276.9619

prediction image 5 :
4 (10000, 32, 32, 3) 30720000 uint8 1
3 (32, 32, 3) 3072 uint8 1
zoomed out image 5:
4 (10000, 32, 32, 3) 30720000 uint8 1
3 (32, 32, 3) 3072 uint8 1
original image 5:
4 (10000, 32, 32, 3) 30720000 uint8 1
3 (32, 32, 3) 3072 uint8 1
computing images difference metrics...
PSNR : 25.3163, SSIM : 0.8424, MSE : 191.1839

prediction image 6 :
4 (10000, 32, 32, 3) 30720000 uint8 1
3 (32, 32, 3) 3072 uint8 1
zoomed out image 6:
4 (10000, 32, 32, 3) 30720000 uint8 1
3 (32, 32, 3) 3072 uint8 1
original image 6:
4 (10000, 32, 32, 3) 30720000 uint8 1
3 (32, 32, 3) 3072 uint8 1
computing images difference metrics...
PSNR : 23.1081, SSIM : 0.8848, MSE : 317.8835

prediction image 7 :
4 (10000, 32, 32, 3) 30720000 uint8 1
3 (32, 32, 3) 3072 uint8 1
zoomed out image 7:
4 (10000, 32, 32, 3) 30720000 uint8 1
3 (32, 32, 3) 3072 uint8 1
original image 7:
4 (10000, 32, 32, 3) 30720000 uint8 1
3 (32, 32, 3) 3072 uint8 1
computing images difference metrics...
PSNR : 29.5055, SSIM : 0.9114, MSE : 72.8662

prediction image 8 :
4 (10000, 32, 32, 3) 30720000 uint8 1
3 (32, 32, 3) 3072 uint8 1
zoomed out image 8:
4 (10000, 32, 32, 3) 30720000 uint8 1
3 (32, 32, 3) 3072 uint8 1
original image 8:
4 (10000, 32, 32, 3) 30720000 uint8 1
3 (32, 32, 3) 3072 uint8 1
computing images difference metrics...
PSNR : 27.0299, SSIM : 0.8848, MSE : 128.8516

prediction image 9 :
4 (10000, 32, 32, 3) 30720000 uint8 1
3 (32, 32, 3) 3072 uint8 1
zoomed out image 9:
4 (10000, 32, 32, 3) 30720000 uint8 1
3 (32, 32, 3) 3072 uint8 1
original image 9:
4 (10000, 32, 32, 3) 30720000 uint8 1
3 (32, 32, 3) 3072 uint8 1
computing images difference metrics...
PSNR : 23.0268, SSIM : 0.852, MSE : 323.8949
SRCNN running lasted 55 m 21 s 568 ms

Process finished with exit code 0
